ESP32_NoiseMonitor/models/noise_classifier_quantized.tflite (tflite, 77832 bytes, 16 tensors)

tfl.pseudo_qconst1 i1 [4, 64]
15 9 46 60 -18 109 18 -74
76 49 -26 -103 -75 -40 48 34
87 45 -80 -94 28 -65 72 -40
34 72 82 -102 29 -100 -81 90
4 -56 84 -127 -29 55 2 -52
19 -61 -39 48 93 76 45 72
27 -64 -51 -47 43 69 -43 -97
19 86 5 50 -40 -104 -32 -26
-54 -67 -45 64 -13 70 -41 10
40 -90 -78 5 99 60 -45 -12
-44 -18 -7 -55 -29 -39 -23 -3
28 93 7 67 -68 -16 57 25
-60 -51 47 127 101 -5 -90 67
117 -51 -16 -17 -46 5 -30 -7
-92 42 -34 -1 -23 -32 -47 8
102 45 39 -66 122 28 119 37
-31 67 -53 -56 90 35 -25 -21
-77 -73 24 -72 18 94 -16 -41
46 -85 76 43 -34 -66 -13 -23
-78 6 -17 51 -77 -58 70 49
-72 49 127 44 4 -82 2 59
-30 33 93 -45 -59 4 55 -58
-68 0 75 53 -46 -26 66 -27
114 -30 89 -63 -26 36 -105 -99
108 -77 105 15 -97 88 46 -11
54 -82 -38 13 -100 24 -8 -80
-50 69 -24 -22 22 20 53 -100
3 -59 12 111 76 98 28 -42
96 -13 41 -12 -47 -92 -114 -113
-72 116 -28 -96 -96 54 -76 32
-103 23 115 -33 -86 3 -39 -46
87 -22 -88 -50 5 -62 -27 -127
00000000: 0f09 2e3c ee6d 12b6 4c31 e699 b5d8 3022
00000010: 572d b0a2 1cbf 48d8 2248 529a 1d9c af5a
00000020: 04c8 5481 e337 02cc 13c3 d930 5d4c 2d48
00000030: 1bc0 cdd1 2b45 d59f 1356 0532 d898 e0e6
00000040: cabd d340 f346 d70a 28a6 b205 633c d3f4
00000050: d4ee f9c9 e3d9 e9fd 1c5d 0743 bcf0 3919
00000060: c4cd 2f7f 65fb a643 75cd f0ef d205 e2f9
00000070: a42a deff e9e0 d108 662d 27be 7a1c 7725
00000080: e143 cbc8 5a23 e7eb b3b7 18b8 125e f0d7
00000090: 2eab 4c2b debe f3e9 b206 ef33 b3c6 4631
000000a0: b831 7f2c 04ae 023b e221 5dd3 c504 37c6
000000b0: bc00 4b35 d2e6 42e5 72e2 59c1 e624 979d
000000c0: 6cb3 690f 9f58 2ef5 36ae da0d 9c18 f8b0
000000d0: ce45 e8ea 1614 359c 03c5 0c6f 4c62 1cd6
000000e0: 60f3 29f4 d1a4 8e8f b874 e4a0 a036 b420
000000f0: 9917 73df aa03 d9d2 57ea a8ce 05c2 e581

tfl.pseudo_qconst3 i1 [64, 64]
-24 71 -61 10 -102 71 48 -34
-16 23 89 70 -70 5 -63 -34
73 -26 112 73 -9 -21 -53 -123
-119 20 -78 117 -64 -106 -34 -67
20 37 74 75 35 6 -5 -105
28 -88 7 -54 36 91 27 -40
115 -63 -127 37 -72 91 -87 59
87 -85 126 35 -51 -127 -111 107
-71 36 67 -67 -38 -60 -51 127
35 123 -28 97 -67 -6 77 -16
36 -61 -32 -103 35 -37 22 -47
-12 2 58 72 -52 32 27 8
0 49 -10 -110 -111 26 18 25
33 -26 -34 13 -40 77 -34 51
-43 -59 -33 109 -108 -39 36 -12
12 105 -16 66 67 -55 -10 -74
-71 59 -24 113 -11 20 23 -110
-48 -47 20 -35 -70 -46 53 -38
10 123 109 120 34 -104 39 -31
-64 74 -15 16 127 101 45 106
-53 -90 23 26 -40 78 -42 -54
-101 -117 37 -77 123 -13 -6 113
106 58 -120 -111 -92 108 -28 -84
-36 -6 -16 37 88 27 -104 20
103 -78 -56 -7 -47 28 -41 -2
58 -19 -77 -41 -13 50 -93 79
-14 -9 -96 -72 -58 52 -26 0
-63 -68 -89 41 -35 88 42 -55
-31 17 -25 68 82 83 -48 125
-99 23 8 127 60 -3 85 -47
32 -7 55 -94 25 62 35 103
85 71 2 -25 -76 -87 65 78
00000000: e847 c30a 9a47 30de f017 5946 ba05 c1de
00000010: 49e6 7049 f7eb cb85 8914 b275 c096 debd
00000020: 1425 4a4b 2306 fb97 1ca8 07ca 245b 1bd8
00000030: 73c1 8125 b85b a93b 57ab 7e23 cd81 916b
00000040: b924 43bd dac4 cd7f 237b e461 bdfa 4df0
00000050: 24c3 e099 23db 16d1 f402 3a48 cc20 1b08
00000060: 0031 f692 911a 1219 21e6 de0d d84d de33
00000070: d5c5 df6d 94d9 24f4 0c69 f042 43c9 f6b6
00000080: b93b e871 f514 1792 d0d1 14dd bad2 35da
00000090: 0a7b 6d78 2298 27e1 c04a f110 7f65 2d6a
000000a0: cba6 171a d84e d6ca 9b8b 25b3 7bf3 fa71
000000b0: 6a3a 8891 a46c e4ac dcfa f025 581b 9814
000000c0: 67b2 c8f9 d11c d7fe 3aed b3d7 f332 a34f
000000d0: f2f7 a0b8 c634 e600 c1bc a729 dd58 2ac9
000000e0: e111 e744 5253 d07d 9d17 087f 3cfd 55d1
000000f0: 20f9 37a2 193e 2367 5547 02e7 b4a9 414e

tfl.pseudo_qconst4 i1 [64] scale=0.00029673643 zero_point=32
-0.014540085 -0.00029673643 -0.025519332 -0.016913977 -0.011869457 0.02818996 -0.007418411 0.027893225
-0.02908017 0.0017804186 0.002077155 -0.02581607 -0.0038575735 -0.014540085 -0.00415431 -0.010682511
-0.011869457 0.0023738914 -0.011869457 -0.0091988295 -0.02818996 -0.018100923 0.007418411 0.0011869457
-0.0068249376 0.0065282015 -0.017210713 -0.013056403 -0.023145441 0.010682511 -0.027596489 -0.013056403
0.00059347285 0.0050445194 -0.021068286 -0.011869457 -0.018991131 0.014836822 -0.0017804186 0.013056403
-0.010385775 -0.022848705 -0.007715147 -0.007418411 0.00029673643 -0.018694395 -0.028783433 -0.013353139
-0.007418411 -0.0068249376 0.01246293 0.0026706278 -0.010682511 -0.011275984 0.0008902093 -0.02729975
0.00059347285 -0.047477826 -0.015133558 -0.008605356 -0.0017804186 0.0029673642 -0.019287867 -0.013353139
00000000: ef1f cae7 f87f 077e be26 27c9 13ef 12fc
00000010: f828 f801 c1e3 3924 0936 e6f4 d244 c3f4
00000020: 2231 d9f8 e052 1a4c fdd3 0607 21e1 bff3
00000030: 0709 4a29 fcfa 23c4 2280 ed03 1a2a dff3

tfl.pseudo_qconst5 i1 [64, 1, 3, 64]
71 40 59 -16 -58 -54 -31 -75
55 -99 -24 -26 -38 1 61 -44
-73 -105 71 -78 -71 -20 -75 54
56 -35 -22 35 -45 -22 -73 -35
47 0 6 -20 74 18 67 30
84 68 -22 -55 7 21 47 -69
-74 -38 64 -64 -99 -24 -11 -7
8 -60 -62 -21 9 2 31 8
-32 -29 36 -78 20 67 78 -33
-86 -51 38 16 26 -28 -93 -32
-31 5 58 0 112 -80 27 25
66 34 -81 -39 -27 8 23 34
31 -112 69 41 -43 2 18 -19
-69 79 -62 53 65 -35 59 82
-65 -1 67 55 -21 -2 -21 62
27 -49 -10 -69 64 -30 -84 -66
-55 46 37 30 0 71 -39 -19
-86 68 -2 6 59 45 -63 -5
-72 -40 97 55 22 40 -59 46
69 -53 -35 -60 50 -8 -75 68
127 -75 14 -60 26 -14 -45 4
76 -39 -10 56 55 -22 -10 68
-38 -88 9 -64 -5 -69 23 15
-30 33 -89 -45 4 -107 -73 64
-3 -70 23 15 4 55 14 1
-36 -40 -43 7 76 1 -31 -55
-31 -77 -2 -47 -67 31 -9 -78
81 -47 65 -44 -34 -106 2 -67
-57 51 -9 -14 -13 92 22 109
-6 -47 -116 34 -2 -1 3 41
-31 11 -17 -46 -72 12 80 -33
43 5 64 65 64 -82 -24 42
00000000: 4728 3bf0 c6ca e1b5 379d e8e6 da01 3dd4
00000010: b797 47b2 b9ec b536 38dd ea23 d3ea b7dd
00000020: 2f00 06ec 4a12 431e 5444 eac9 0715 2fbb
00000030: b6da 40c0 9de8 f5f9 08c4 c2eb 0902 1f08
00000040: e0e3 24b2 1443 4edf aacd 2610 1ae4 a3e0
00000050: e105 3a00 70b0 1b19 4222 afd9 e508 1722
00000060: 1f90 4529 d502 12ed bb4f c235 41dd 3b52
00000070: bfff 4337 ebfe eb3e 1bcf f6bb 40e2 acbe
00000080: c92e 251e 0047 d9ed aa44 fe06 3b2d c1fb
00000090: b8d8 6137 1628 c52e 45cb ddc4 32f8 b544
000000a0: 7fb5 0ec4 1af2 d304 4cd9 f638 37ea f644
000000b0: daa8 09c0 fbbb 170f e221 a7d3 0495 b740
000000c0: fdba 170f 0437 0e01 dcd8 d507 4c01 e1c9
000000d0: e1b3 fed1 bd1f f7b2 51d1 41d4 de96 02bd
000000e0: c733 f7f2 f35c 166d fad1 8c22 feff 0329
000000f0: e10b efd2 b80c 50df 2b05 4041 40ae e82a

tfl.pseudo_qconst6 i1 [64] scale=0.0003139737 zero_point=-18
0.02292008 -0.005023579 0.006907421 0.008163316 0.008163316 -0.017896501 -0.016640605 -0.004081658
-0.0037676843 -0.007849342 0.009105237 -0.031083396 -0.0006279474 -0.011617026 -0.034537107 0.0006279474
-0.024489949 -0.011303053 0.020094316 -0.009733184 -0.014756763 0.0012558948 0.030769423 -0.015384711
-0.009419211 0.0059655 -0.003139737 0.0006279474 0.013500869 0.0028257633 -0.008791263 0.031711344
0.021978159 0.045526184 -0.015698684 0.011303053 -0.019152395 0.0009419211 -0.0015698685 0.012558948
0.012558948 0.00847729 -0.01601266 0.015384711 -0.014756763 -0.0043956316 0.011303053 -0.012872921
-0.010675105 0.03642095 -0.018524447 -0.006279474 0.005023579 0.0006279474 -0.012872921 -0.020094316
-0.0043956316 -0.01695458 -0.0075353687 -0.014756763 0.012558948 -0.013814842 0.0043956316 0.008163316
00000000: 37de 0408 08b5 b9e1 e2d5 0b8b ecc9 80f0
00000010: a0ca 2ecf bff2 50bd d001 e4f0 19f7 d253
00000020: 347f bc12 b1f1 e916 1609 bb1f bfe0 12c5
00000030: cc62 b3da fef0 c5ae e0b8 d6bf 16c2 fc08

tfl.pseudo_qconst9 i1 [64, 1, 3, 64]
-28 51 70 68 98 93 -82 50
-39 -54 -11 50 94 -60 -81 -49
93 -4 33 -1 24 -48 -52 26
78 -65 31 75 -1 -60 -103 67
-75 46 -67 20 -85 -29 54 -101
-127 -85 24 -57 44 -28 -109 86
31 -27 -60 44 -100 30 -6 59
30 -32 72 -71 -95 -77 53 -80
-91 21 25 77 1 7 -9 -48
13 -36 -15 -52 21 -52 18 -77
-86 26 59 26 100 72 49 24
103 -14 -9 -70 -6 3 -73 -17
46 -22 -9 67 -101 38 -48 6
-50 62 -49 -85 58 -3 37 -51
-93 -60 -17 -43 -33 -67 85 13
-60 94 100 -53 -27 -85 28 -64
-22 -50 104 -13 124 49 -18 56
32 -36 28 78 104 -43 89 -69
26 63 -9 37 -45 67 -58 5
94 22 39 17 22 46 39 50
54 1 -16 53 -19 65 -113 21
4 -66 105 71 41 -30 -115 65
4 -39 2 -96 -119 -69 -43 -95
-82 48 43 73 20 63 -39 67
-62 -82 -49 0 37 52 -18 -80
26 72 10 10 41 -5 86 -76
45 2 95 78 9 -60 101 -46
30 0 42 -31 -77 69 -4 -75
34 -127 -82 5 86 -1 -10 85
-27 22 31 86 -56 15 11 -31
-112 -71 16 -29 -83 -44 24 -82
-102 51 -28 -76 40 -7 32 -20
00000000: e433 4644 625d ae32 d9ca f532 5ec4 afcf
00000010: 5dfc 21ff 18d0 cc1a 4ebf 1f4b ffc4 9943
00000020: b52e bd14 abe3 369b 81ab 18c7 2ce4 9356
00000030: 1fe5 c42c 9c1e fa3b 1ee0 48b9 a1b3 35b0
00000040: a515 194d 0107 f7d0 0ddc f1cc 15cc 12b3
00000050: aa1a 3b1a 6448 3118 67f2 f7ba fa03 b7ef
00000060: 2eea f743 9b26 d006 ce3e cfab 3afd 25cd
00000070: a3c4 efd5 dfbd 550d c45e 64cb e5ab 1cc0
00000080: eace 68f3 7c31 ee38 20dc 1c4e 68d5 59bb
00000090: 1a3f f725 d343 c605 5e16 2711 162e 2732
000000a0: 3601 f035 ed41 8f15 04be 6947 29e2 8d41
000000b0: 04d9 02a0 89bb d5a1 ae30 2b49 143f d943
000000c0: c2ae cf00 2534 eeb0 1a48 0a0a 29fb 56b4
000000d0: 2d02 5f4e 09c4 65d2 1e00 2ae1 b345 fcb5
000000e0: 2281 ae05 56ff f655 e516 1f56 c80f 0be1
000000f0: 90b9 10e3 add4 18ae 9a33 e4b4 28f9 20ec

tfl.pseudo_qconst11 i1 [64, 1, 3, 64]
-64 -62 -62 17 -68 19 -49 -39
-62 -109 -51 51 -73 -33 -51 -15
2 3 38 48 -5 -25 70 -19
-21 -72 25 38 -68 -34 -39 -19
25 -5 3 -48 27 30 -10 -29
-29 -51 18 -3 1 70 -41 27
25 38 14 9 45 23 -38 -97
-48 55 -37 22 -14 -22 -66 -8
-3 27 -65 -85 21 -44 -61 -80
-81 -66 -72 -40 38 90 86 25
34 34 -61 -29 -93 -17 -17 -12
-67 -32 -31 -110 -15 67 23 13
-9 -40 -70 -24 23 -79 -48 1
49 -40 -5 -87 -13 42 -23 -127
-106 22 17 73 -37 -71 76 13
75 -28 53 -67 -31 -53 -4 20
-79 -61 -69 -72 -39 23 -10 -33
-67 -79 60 54 -9 54 -12 -29
-8 7 -30 -32 59 -15 2 -72
-14 69 -60 24 81 28 6 40
-25 -49 17 58 93 -103 -31 -24
39 36 29 -11 8 53 -7 -101
-25 100 31 75 -105 46 53 43
40 28 -48 -80 5 29 -68 -68
33 -15 112 79 73 25 43 -20
52 4 -23 18 91 22 9 29
53 58 -12 92 -32 -32 41 -2
69 21 58 -51 -48 36 49 16
-49 21 11 58 18 -34 18 59
94 -89 -2 45 -43 -49 -74 50
-29 -65 -4 12 26 27 19 32
-68 -43 25 41 -22 62 74 -46
00000000: c0c2 c211 bc13 cfd9 c293 cd33 b7df cdf1
00000010: 0203 2630 fbe7 46ed ebb8 1926 bcde d9ed
00000020: 19fb 03d0 1b1e f6e3 e3cd 12fd 0146 d71b
00000030: 1926 0e09 2d17 da9f d037 db16 f2ea bef8
00000040: fd1b bfab 15d4 c3b0 afbe b8d8 265a 5619
00000050: 2222 c3e3 a3ef eff4 bde0 e192 f143 170d
00000060: f7d8 bae8 17b1 d001 31d8 fba9 f32a e981
00000070: 9616 1149 dbb9 4c0d 4be4 35bd e1cb fc14
00000080: b1c3 bbb8 d917 f6df bdb1 3c36 f736 f4e3
00000090: f807 e2e0 3bf1 02b8 f245 c418 511c 0628
000000a0: e7cf 113a 5d99 e1e8 2724 1df5 0835 f99b
000000b0: e764 1f4b 972e 352b 281c d0b0 051d bcbc
000000c0: 21f1 704f 4919 2bec 3404 e912 5b16 091d
000000d0: 353a f45c e0e0 29fe 4515 3acd d024 3110
000000e0: cf15 0b3a 12de 123b 5ea7 fe2d d5cf b632
000000f0: e3bf fc0c 1a1b 1320 bcd5 1929 ea3e 4ad2

tfl.pseudo_qconst12 i1 [64] scale=0.0030139189 zero_point=127
-0.5636028 -0.66909 -0.7474519 -0.5636028 -0.59976983 -0.6208673 -0.6901874 -0.62990904
-0.6208673 -0.53044975 -0.6268951 -0.66607606 -0.593742 -0.705257 -0.7233405 -0.6871735
-0.68114567 -0.63593686 -0.7564936 -0.5696307 -0.6057977 -0.6871735 -0.65703434 -0.5636028
-0.6208673 -0.67511785 -0.6268951 -0.53044975 -0.53346366 -0.5455193 -0.5726446 -0.66306216
-0.6962153 -0.4972966 -0.6088116 -0.5847003 -0.5455193 -0.67511785 -0.7685493 -0.6057977
-0.7685493 -0.7474519 -0.53044975 -0.59976983 -0.76252145 -0.6238812 -0.66909 -0.5696307
-0.6962153 -0.593742 -0.705257 -0.5877142 -0.6721039 -0.62990904 -0.6268951 -0.65703434
-0.5244219 -0.5786724 -0.7233405 -0.64497864 -0.50332445 -0.48524094 -0.6118255 -0.69320136
00000000: c4a1 87c4 b8b1 9aae b1cf afa2 ba95 8f9b
00000010: 9dac 84c2 b69b a5c4 b19f afcf ceca c1a3
00000020: 98da b5bd ca9f 80b6 8087 cfb8 82b0 a1c2
00000030: 98ba 95bc a0ae afa5 d1bf 8fa9 d8de b499

tfl.pseudo_qconst13 i1 [64] scale=0.0061203344 zero_point=-128
1.3281126 0.9608925 1.0098552 1.0343366 1.3036312 1.3219923 1.1812246 1.1139009
1.0588179 1.3648345 1.0404569 1.3281126 1.0098552 1.1383822 1.1567432 1.3464736
0.9976145 1.2852702 1.0159755 1.1812246 1.1873449 1.1628635 1.2607889 1.3097515
1.0098552 1.1445025 1.2363075 1.2546686 1.5056022 1.3770752 1.5606853 1.2179465
1.1934652 1.4994819 1.1567432 1.0771788 1.1995856 1.481121 1.1139009 0.9608925
1.0894195 1.3403533 1.3158718 1.4443989 1.0588179 1.0282161 1.2852702 1.0588179
1.0955398 1.1934652 1.1383822 1.2424278 1.46276 0.87520784 1.3097515 1.4566395
1.2485483 1.2913905 0.8568468 1.3342329 1.3158718 1.389316 1.1506228 0.9914942
00000000: 591d 2529 5558 4136 2d5f 2a59 253a 3d5c
00000010: 2352 2641 423e 4e56 253b 4a4d 7661 7f47
00000020: 4375 3d30 4472 361d 325b 576c 2d28 522d
00000030: 3343 3a4b 6f0f 566e 4c53 0c5a 5763 3c22

tfl.pseudo_qconst15 i1 [64, 1, 3, 32]
73 36 -121 96 -18 -35 73 45
16 24 -49 88 -12 -83 97 103
-32 -35 27 119 79 -82 -20 34
-83 87 -101 -10 78 -23 126 24
35 -66 4 32 -70 -37 -71 7
26 -57 -66 65 24 19 -19 52
75 -33 -111 -70 -108 -79 -85 40
-51 -12 52 72 77 83 65 -80
40 -9 -126 80 -29 -114 -7 54
-95 13 -49 120 -36 5 -59 -32
-92 91 -23 95 -41 -66 50 -91
-61 -45 -13 74 -75 70 38 -127
-41 -26 71 -9 -2 79 74 -13
-78 113 -114 113 43 20 -57 8
-7 -110 6 30 -53 20 -70 -98
51 -41 -68 15 7 -18 -62 103
-43 14 30 16 -7 -107 -70 54
-53 104 44 70 28 -32 72 -14
-24 -85 -60 -23 -1 -56 15 -41
7 44 -11 40 24 49 49 83
45 79 83 -3 23 86 46 22
71 42 -57 100 42 92 -53 -112
69 38 -10 -114 -30 8 -20 7
23 64 36 59 28 -85 127 44
15 88 -90 12 30 58 122 -61
-94 -18 11 84 51 59 58 46
90 -12 15 -40 72 -40 -20 28
77 57 -14 74 37 47 64 10
72 -102 23 85 4 15 118 72
-79 -10 127 -46 -12 31 -83 -2
39 -63 71 -28 88 -51 26 45
19 -77 75 35 52 89 26 50
00000000: 4924 8760 eedd 492d 1018 cf58 f4ad 6167
00000010: e0dd 1b77 4fae ec22 ad57 9bf6 4ee9 7e18
00000020: 23be 0420 badb b907 1ac7 be41 1813 ed34
00000030: 4bdf 91ba 94b1 ab28 cdf4 3448 4d53 41b0
00000040: 28f7 8250 e38e f936 a10d cf78 dc05 c5e0
00000050: a45b e95f d7be 32a5 c3d3 f34a b546 2681
00000060: d7e6 47f7 fe4f 4af3 b271 8e71 2b14 c708
00000070: f992 061e cb14 ba9e 33d7 bc0f 07ee c267
00000080: d50e 1e10 f995 ba36 cb68 2c46 1ce0 48f2
00000090: e8ab c4e9 ffc8 0fd7 072c f528 1831 3153
000000a0: 2d4f 53fd 1756 2e16 472a c764 2a5c cb90
000000b0: 4526 f68e e208 ec07 1740 243b 1cab 7f2c
000000c0: 0f58 a60c 1e3a 7ac3 a2ee 0b54 333b 3a2e
000000d0: 5af4 0fd8 48d8 ec1c 4d39 f24a 252f 400a
000000e0: 489a 1755 040f 7648 b1f6 7fd2 f41f adfe
000000f0: 27c1 47e4 58cd 1a2d 13b3 4b23 3459 1a32

tfl.pseudo_qconst16 i1 [32] scale=0.0031415455 zero_point=127
-0.62516755 -0.67229074 -0.68171537 -0.61888444 -0.6848569 -0.69114 -0.57490283 -0.6094598
-0.7382632 -0.6063183 -0.5968936 -0.66600764 -0.57804435 -0.7476878 -0.656583 -0.61260134
-0.6283091 -0.5686197 -0.67543226 -0.5686197 -0.6942815 -0.67229074 -0.5560535 -0.6345922
-0.67229074 -0.57490283 -0.5591951 -0.6283091 -0.6879985 -0.59061056 -0.6063183 -0.8010941
00000000: b8a9 a6ba a5a3 c8bd 94be c1ab c791 aebc
00000010: b7ca a8ca a2a9 ceb5 a9c8 cdb7 a4c3 be80

tfl.pseudo_qconst17 i1 [32] scale=0.007940088 zero_point=-128
1.5721375 1.6038978 1.6991789 1.4927366 1.1751331 1.707119 1.3021744 2.0247226
1.6277181 1.3736353 1.7706397 1.5324371 1.2148335 1.4292159 1.5721375 1.4530362
1.9453217 1.8500406 1.2465938 1.5562574 1.4530362 1.2942344 1.2783543 1.7706397
1.349815 1.5562574 1.9056212 1.8421005 1.3656952 1.8421005 1.4847965 1.5165569
00000000: 464a 563c 1457 247f 4d2d 5f41 1934 4637
00000010: 7569 1d44 3723 215f 2a44 7068 2c68 3b3f

tfl.pseudo_qconst19 i1 [32, 1, 3, 16]
126 -36 -36 -45 -53 76 98 -34
-36 34 -84 29 79 -68 -24 -3
107 -97 59 53 -13 98 -32 110
10 -10 76 -48 -51 127 -16 -86
87 -25 22 47 -82 -12 -84 -42
22 93 -34 -71 99 -34 -102 -38
27 -77 69 -36 -19 -38 30 -43
10 -78 24 -63 -117 -30 43 -43
47 -7 12 51 22 61 -5 79
13 -68 -14 -67 -76 -58 44 39
-16 31 -70 69 -50 -13 -43 46
70 47 40 27 -127 -46 101 -45
-19 36 -83 86 -95 -87 42 26
44 125 46 31 -32 32 -54 75
52 81 53 34 -45 69 -49 -62
98 -5 -30 64 35 45 71 5
7 -21 -8 71 -114 -1 38 -14
35 86 -76 -54 119 8 127 58
-108 32 -100 -84 -79 50 36 -1
12 29 -104 80 93 -59 127 -78
76 59 -66 22 23 -45 -76 105
-49 20 -56 -37 40 12 28 -14
-43 -107 -83 -72 115 -42 -26 31
32 -108 -90 -48 27 50 97 69
-101 76 63 -46 -25 4 -63 113
39 69 -49 -63 -16 -5 -36 28
-19 -26 64 -45 11 -40 -3 87
14 119 -20 79 59 83 28 -4
38 68 -53 -61 -21 9 -65 98
42 127 99 32 -90 -21 -113 82
55 -4 -111 91 -30 93 14 100
-117 45 90 4 100 -83 -69 73
00000000: 7edc dcd3 cb4c 62de dc22 ac1d 4fbc e8fd
00000010: 6b9f 3b35 f362 e06e 0af6 4cd0 cd7f f0aa
00000020: 57e7 162f aef4 acd6 165d deb9 63de 9ada
00000030: 1bb3 45dc edda 1ed5 0ab2 18c1 8be2 2bd5
00000040: 2ff9 0c33 163d fb4f 0dbc f2bd b4c6 2c27
00000050: f01f ba45 cef3 d52e 462f 281b 81d2 65d3
00000060: ed24 ad56 a1a9 2a1a 2c7d 2e1f e020 ca4b
00000070: 3451 3522 d345 cfc2 62fb e240 232d 4705
00000080: 07eb f847 8eff 26f2 2356 b4ca 7708 7f3a
00000090: 9420 9cac b132 24ff 0c1d 9850 5dc5 7fb2
000000a0: 4c3b be16 17d3 b469 cf14 c8db 280c 1cf2
000000b0: d595 adb8 73d6 e61f 2094 a6d0 1b32 6145
000000c0: 9b4c 3fd2 e704 c171 2745 cfc1 f0fb dc1c
000000d0: ede6 40d3 0bd8 fd57 0e77 ec4f 3b53 1cfc
000000e0: 2644 cbc3 eb09 bf62 2a7f 6320 a6eb 8f52
000000f0: 37fc 915b e25d 0e64 8b2d 5a04 64ad bb49

tfl.pseudo_qconst20 i1 [16] scale=0.004640298 zero_point=127
-0.94662076 -1.1832759 -0.4918716 -0.48723128 -0.2459358 -0.6682029 -0.5521954 -0.76564914
-0.6589223 -1.0301461 -0.78885067 -0.7238865 -0.99302375 -0.4454686 -0.51507306 -0.5057925
00000000: b380 1516 4aef 08da f1a1 d5e3 a91f 1012

tfl.pseudo_qconst21 i1 [16] scale=0.010542251 zero_point=-128
2.3192952 1.6656756 2.266584 1.8976052 1.4653729 1.4126617 2.6882741 1.9503164
1.1596476 1.5602531 2.4563446 2.2349572 1.7289292 2.182246 2.4247177 1.8132672
00000000: 5c1e 5734 0b06 7f39 ee14 6954 244f 662c

tfl.pseudo_qconst23 i1 [16, 1, 3, 40]
-34 67 -75 112 -86 12 -65 -24
66 47 -74 28 -66 68 42 31
76 -17 27 52 56 -56 76 71
-48 22 -24 -78 -2 88 108 -81
-48 -98 -72 88 -44 -126 -43 79
74 124 -33 -91 77 65 55 -18
-92 -79 -27 -2 85 121 81 127
35 102 -95 -38 -44 -10 -118 -15
45 68 -56 60 -99 -97 -1 -18
8 94 -80 -45 -57 -14 -80 31
73 -23 11 -93 -6 -63 -65 42
-74 61 -77 111 17 -79 40 -75
-93 -18 83 71 -47 -65 -56 -27
65 110 28 -57 121 62 39 98
-15 0 87 -49 -67 6 38 -4
70 90 -27 -20 79 60 77 -10
-106 58 -99 77 43 28 -97 37
-37 71 -63 -43 106 -23 86 39
112 -94 69 59 -114 -57 -67 -81
77 79 51 109 93 -91 71 -79
-41 -28 -2 -63 -62 -4 -34 -12
-49 108 -75 -21 9 -45 20 47
107 -54 -5 -55 15 -12 -83 -100
63 64 -83 -18 36 -112 85 107
-73 -101 -63 91 16 -56 -119 79
-11 -35 100 119 71 15 36 50
62 57 -11 -76 -58 73 66 16
42 -9 -21 107 12 67 30 32
-107 47 52 -111 70 -56 -81 54
38 -13 94 -90 -119 -127 -63 -77
-53 85 102 16 -52 -30 -103 -18
22 -64 2 39 -104 -62 31 -66
00000000: de43 b570 aa0c bfe8 422f b61c be44 2a1f
00000010: 4cef 1b34 38c8 4c47 d016 e8b2 fe58 6caf
00000020: d09e b858 d482 d54f 4a7c dfa5 4d41 37ee
00000030: a4b1 e5fe 5579 517f 2366 a1da d4f6 8af1
00000040: 2d44 c83c 9d9f ffee 085e b0d3 c7f2 b01f
00000050: 49e9 0ba3 fac1 bf2a b63d b36f 11b1 28b5
00000060: a3ee 5347 d1bf c8e5 416e 1cc7 793e 2762
00000070: f100 57cf bd06 26fc 465a e5ec 4f3c 4df6
00000080: 963a 9d4d 2b1c 9f25 db47 c1d5 6ae9 5627
00000090: 70a2 453b 8ec7 bdaf 4d4f 336d 5da5 47b1
000000a0: d7e4 fec1 c2fc def4 cf6c b5eb 09d3 142f
000000b0: 6bca fbc9 0ff4 ad9c 3f40 adee 2490 556b
000000c0: b79b c15b 10c8 894f f5dd 6477 470f 2432
000000d0: 3e39 f5b4 c649 4210 2af7 eb6b 0c43 1e20
000000e0: 952f 3491 46c8 af36 26f3 5ea6 8981 c1b3
000000f0: cb55 6610 cce2 99ee 16c0 0227 98c2 1fbe
